…
tream","name":"stdout","text":["Model: \"model\"\n","__________________________________________________________________________________________________\n","Layer (type)                    Output Shape         Param #     Connected to                     \n","==================================================================================================\n","input_1 (InputLayer)            [(None, 80, 80, 3)]  0                                            \n","__________________________________________________________________________________________________\n","conv2d (Conv2D)                 (None, 80, 80, 32)   7808        input_1[0][0]                    \n","__________________________________________________________________________________________________\n","conv2d_1 (Conv2D)               (None, 80, 80, 64)   51264       conv2d[0][0]                     \n","__________________________________________________________________________________________________\n","tf.compat.v1.nn.max_pool (TFOpL (None, 40, 40, 64)   0           conv2d_1[0][0]                   \n","__________________________________________________________________________________________________\n","conv2d_2 (Conv2D)               (None, 40, 40, 64)   102464      tf.compat.v1.nn.max_pool[0][0]   \n","__________________________________________________________________________________________________\n","conv2d_3 (Conv2D)               (None, 40, 40, 128)  73856       conv2d_2[0][0]                   \n","__________________________________________________________________________________________________\n","tf.compat.v1.nn.max_pool_1 (TFO (None, 20, 20, 128)  0           conv2d_3[0][0]                   \n","__________________________________________________________________________________________________\n","conv2d_4 (Conv2D)               (None, 20, 20, 128)  147584      tf.compat.v1.nn.max_pool_1[0][0] \n","__________________________________________________________________________________________________\n","tf.image.resize (TFOpLambda)    (None, 40, 40, 128)  0           conv2d_4[0][0]                   \n","__________________________________________________________________________________________________\n","conv2d_5 (Conv2D)               (None, 40, 40, 128)  147584      tf.image.resize[0][0]            \n","__________________________________________________________________________________________________\n","add (Add)                       (None, 40, 40, 128)  0           conv2d_3[0][0]                   \n","                                                                 conv2d_5[0][0]                   \n","__________________________________________________________________________________________________\n","conv2d_6 (Conv2D)               (None, 40, 40, 64)   204864      add[0][0]                        \n","__________________________________________________________________________________________________\n","add_1 (Add)                     (None, 40, 40, 64)   0           conv2d_2[0][0]                   \n","                                                                 conv2d_6[0][0]                   \n","__________________________________________________________________________________________________\n","tf.image.resize_1 (TFOpLambda)  (None, 80, 80, 64)   0           add_1[0][0]                      \n","__________________________________________________________________________________________________\n","conv2d_7 (Conv2D)               (None, 80, 80, 64)   102464      tf.image.resize_1[0][0]          \n","__________________________________________________________________________________________________\n","add_2 (Add)                     (None, 80, 80, 64)   0           conv2d_1[0][0]                   \n","                                                                 conv2d_7[0][0]                   \n","__________________________________________________________________________________________________\n","conv2d_8 (Conv2D)               (None, 80, 80, 32)   165920      add_2[0][0]                      \n","__________________________________________________________________________________________________\n","add_3 (Add)                     (None, 80, 80, 32)   0           conv2d[0][0]                     \n","                                                                 conv2d_8[0][0]                   \n","__________________________________________________________________________________________________\n","conv2d_9 (Conv2D)               (None, 80, 80, 3)    867         add_3[0][0]                      \n","==================================================================================================\n","Total params: 1,004,675\n","Trainable params: 1,004,675\n","Non-trainable params: 0\n","__________________________________________________________________________________________________\n"]}]},{"cell_type":"code","metadata":{"colab":{"base_uri":"htt
…
