…
utput_type":"stream","text":["Model: \"model_1\"\n","__________________________________________________________________________________________________\n","Layer (type)                    Output Shape         Param #     Connected to                     \n","==================================================================================================\n","input_2 (InputLayer)            [(None, 80, 80, 3)]  0                                            \n","__________________________________________________________________________________________________\n","conv2d_18 (Conv2D)              (None, 80, 80, 32)   7808        input_2[0][0]                    \n","__________________________________________________________________________________________________\n","conv2d_19 (Conv2D)              (None, 80, 80, 64)   51264       conv2d_18[0][0]                  \n","__________________________________________________________________________________________________\n","max_pooling2d_4 (MaxPooling2D)  (None, 40, 40, 64)   0           conv2d_19[0][0]                  \n","__________________________________________________________________________________________________\n","conv2d_20 (Conv2D)              (None, 40, 40, 64)   102464      max_pooling2d_4[0][0]            \n","__________________________________________________________________________________________________\n","conv2d_21 (Conv2D)              (None, 40, 40, 128)  73856       conv2d_20[0][0]                  \n","__________________________________________________________________________________________________\n","max_pooling2d_5 (MaxPooling2D)  (None, 20, 20, 128)  0           conv2d_21[0][0]                  \n","__________________________________________________________________________________________________\n","conv2d_22 (Conv2D)              (None, 20, 20, 64)   204864      max_pooling2d_5[0][0]            \n","__________________________________________________________________________________________________\n","conv2d_23 (Conv2D)              (None, 20, 20, 128)  73856       conv2d_22[0][0]                  \n","__________________________________________________________________________________________________\n","max_pooling2d_6 (MaxPooling2D)  (None, 10, 10, 128)  0           conv2d_23[0][0]                  \n","__________________________________________________________________________________________________\n","conv2d_24 (Conv2D)              (None, 10, 10, 64)   204864      max_pooling2d_6[0][0]            \n","__________________________________________________________________________________________________\n","conv2d_25 (Conv2D)              (None, 10, 10, 128)  73856       conv2d_24[0][0]                  \n","__________________________________________________________________________________________________\n","max_pooling2d_7 (MaxPooling2D)  (None, 5, 5, 128)    0           conv2d_25[0][0]                  \n","__________________________________________________________________________________________________\n","conv2d_26 (Conv2D)              (None, 5, 5, 128)    147584      max_pooling2d_7[0][0]            \n","__________________________________________________________________________________________________\n","up_sampling2d_4 (UpSampling2D)  (None, 10, 10, 128)  0           conv2d_26[0][0]                  \n","__________________________________________________________________________________________________\n","conv2d_27 (Conv2D)              (None, 10, 10, 128)  147584      up_sampling2d_4[0][0]            \n","__________________________________________________________________________________________________\n","add_2 (Add)                     (None, 10, 10, 128)  0           conv2d_25[0][0]                  \n","                                                                 conv2d_27[0][0]                  \n","__________________________________________________________________________________________________\n","up_sampling2d_5 (UpSampling2D)  (None, 20, 20, 128)  0           add_2[0][0]                      \n","__________________________________________________________________________________________________\n","conv2d_29 (Conv2D)              (None, 20, 20, 64)   204864      up_sampling2d_5[0][0]            \n","__________________________________________________________________________________________________\n","conv2d_30 (Conv2D)              (None, 20, 20, 32)   165920      conv2d_29[0][0]                  \n","__________________________________________________________________________________________________\n","up_sampling2d_6 (UpSampling2D)  (None, 40, 40, 32)   0           conv2d_30[0][0]                  \n","__________________________________________________________________________________________________\n","conv2d_31 (Conv2D)              (None, 40, 40, 128)  36992       up_sampling2d_6[0][0]            \n","__________________________________________________________________________________________________\n","add_3 (Add)                     (None, 40, 40, 128)  0           conv2d_21[0][0]                  \n","                                                                 conv2d_31[0][0]                  \n","__________________________________________________________________________________________________\n","up_sampling2d_7 (UpSampling2D)  (None, 80, 80, 128)  0           add_3[0][0]                      \n","__________________________________________________________________________________________________\n","conv2d_33 (Conv2D)              (None, 80, 80, 64)   204864      up_sampling2d_7[0][0]            \n","__________________________________________________________________________________________________\n","conv2d_34 (Conv2D)              (None, 80, 80, 32)   165920      conv2d_33[0][0]                  \n","__________________________________________________________________________________________________\n","conv2d_35 (Conv2D)              (None, 80, 80, 3)    867         conv2d_34[0][0]                  \n","==================================================================================================\n","Total params: 1,867,427\n","Trainable params: 1,867,427\n","Non-trainable params: 0\n","__________________________________________________________________________________________________\n"],"name":"stdout"}]},{"cell_type":"code","metadata":{"colab":
…
 Model(Input_img, decoded)\n","autoencoder.compile(optimizer='adam', loss='mse', metrics=['accuracy'])\n","autoencoder.summary()"],"execution_count":null,"outputs":[{"output_type":"stream","text":["Model: \"model_3\"\n","_________________________________________________________________\n","Layer (type)                 Output Shape              Param #   \n","=================================================================\n","input_4 (InputLayer)         [(None, 80, 80, 3)]       0         \n","_________________________________________________________________\n","conv2d_30 (Conv2D)           (None, 78, 78, 64)        1792      \n","_________________________________________________________________\n","conv2d_31 (Conv2D)           (None, 76, 76, 128)       73856     \n","_________________________________________________________________\n","conv2d_32 (Conv2D)           (None, 74, 74, 256)       295168    \n","_________________________________________________________________\n","conv2d_transpose (Conv2DTran (None, 76, 76, 128)       295040    \n","_________________________________________________________________\n","conv2d_transpose_1 (Conv2DTr (None, 78, 78, 64)        73792     \n","_________________________________________________________________\n","conv2d_transpose_2 (Conv2DTr (None, 80, 80, 3)         1731      \n","=================================================================\n","Total params: 741,379\n","Trainable params: 741,379\n","Non-trainable params: 0\n","_________________________________________________________________\n"],"name":"stdout"}]},{"cell_type":"code","metadata":{"colab":{"base_uri":"https://localhost:8080/"},"id":"X7t_Z7wh1UAI","executionInfo":{"status":"ok","timestamp":1627
…
