…
"output_type":"stream","text":["Model: \"model\"\n","__________________________________________________________________________________________________\n","Layer (type)                    Output Shape         Param #     Connected to                     \n","==================================================================================================\n","input_1 (InputLayer)            [(None, 80, 80, 3)]  0                                            \n","__________________________________________________________________________________________________\n","conv2d (Conv2D)                 (None, 80, 80, 32)   7808        input_1[0][0]                    \n","__________________________________________________________________________________________________\n","conv2d_1 (Conv2D)               (None, 80, 80, 64)   51264       conv2d[0][0]                     \n","__________________________________________________________________________________________________\n","max_pooling2d (MaxPooling2D)    (None, 40, 40, 64)   0           conv2d_1[0][0]                   \n","__________________________________________________________________________________________________\n","conv2d_2 (Conv2D)               (None, 40, 40, 64)   102464      max_pooling2d[0][0]              \n","__________________________________________________________________________________________________\n","conv2d_3 (Conv2D)               (None, 40, 40, 128)  73856       conv2d_2[0][0]                   \n","__________________________________________________________________________________________________\n","max_pooling2d_1 (MaxPooling2D)  (None, 20, 20, 128)  0           conv2d_3[0][0]                   \n","__________________________________________________________________________________________________\n","conv2d_4 (Conv2D)               (None, 20, 20, 64)   204864      max_pooling2d_1[0][0]            \n","__________________________________________________________________________________________________\n","conv2d_5 (Conv2D)               (None, 20, 20, 128)  73856       conv2d_4[0][0]                   \n","__________________________________________________________________________________________________\n","max_pooling2d_2 (MaxPooling2D)  (None, 10, 10, 128)  0           conv2d_5[0][0]                   \n","__________________________________________________________________________________________________\n","conv2d_6 (Conv2D)               (None, 10, 10, 64)   204864      max_pooling2d_2[0][0]            \n","__________________________________________________________________________________________________\n","conv2d_7 (Conv2D)               (None, 10, 10, 128)  73856       conv2d_6[0][0]                   \n","__________________________________________________________________________________________________\n","max_pooling2d_3 (MaxPooling2D)  (None, 5, 5, 128)    0           conv2d_7[0][0]                   \n","__________________________________________________________________________________________________\n","conv2d_8 (Conv2D)               (None, 5, 5, 128)    147584      max_pooling2d_3[0][0]            \n","__________________________________________________________________________________________________\n","up_sampling2d (UpSampling2D)    (None, 10, 10, 128)  0           conv2d_8[0][0]                   \n","__________________________________________________________________________________________________\n","conv2d_9 (Conv2D)               (None, 10, 10, 128)  147584      up_sampling2d[0][0]              \n","__________________________________________________________________________________________________\n","add (Add)                       (None, 10, 10, 128)  0           conv2d_7[0][0]                   \n","                                                                 conv2d_9[0][0]                   \n","__________________________________________________________________________________________________\n","up_sampling2d_1 (UpSampling2D)  (None, 20, 20, 128)  0           add[0][0]                        \n","__________________________________________________________________________________________________\n","conv2d_11 (Conv2D)              (None, 20, 20, 64)   204864      up_sampling2d_1[0][0]            \n","__________________________________________________________________________________________________\n","conv2d_12 (Conv2D)              (None, 20, 20, 32)   165920      conv2d_11[0][0]                  \n","__________________________________________________________________________________________________\n","up_sampling2d_2 (UpSampling2D)  (None, 40, 40, 32)   0           conv2d_12[0][0]                  \n","__________________________________________________________________________________________________\n","conv2d_13 (Conv2D)              (None, 40, 40, 128)  36992       up_sampling2d_2[0][0]            \n","__________________________________________________________________________________________________\n","add_1 (Add)                     (None, 40, 40, 128)  0           conv2d_3[0][0]                   \n","                                                                 conv2d_13[0][0]                  \n","__________________________________________________________________________________________________\n","up_sampling2d_3 (UpSampling2D)  (None, 80, 80, 128)  0           add_1[0][0]                      \n","__________________________________________________________________________________________________\n","conv2d_15 (Conv2D)              (None, 80, 80, 64)   204864      up_sampling2d_3[0][0]            \n","__________________________________________________________________________________________________\n","conv2d_16 (Conv2D)              (None, 80, 80, 32)   165920      conv2d_15[0][0]                  \n","__________________________________________________________________________________________________\n","conv2d_17 (Conv2D)              (None, 80, 80, 3)    867         conv2d_16[0][0]                  \n","==================================================================================================\n","Total params: 1,867,427\n","Trainable params: 1,867,427\n","Non-trainable params: 0\n","__________________________________________________________________________________________________\n"],"name":"stdout"}]},{"cell_type":"code","metadata":{"colab":
…
