…
utput_type":"stream","text":["Model: \"model_4\"\n","__________________________________________________________________________________________________\n","Layer (type)                    Output Shape         Param #     Connected to                     \n","==================================================================================================\n","input_5 (InputLayer)            [(None, 80, 80, 3)]  0                                            \n","__________________________________________________________________________________________________\n","conv2d_24 (Conv2D)              (None, 80, 80, 32)   7808        input_5[0][0]                    \n","__________________________________________________________________________________________________\n","conv2d_25 (Conv2D)              (None, 80, 80, 64)   51264       conv2d_24[0][0]                  \n","__________________________________________________________________________________________________\n","max_pooling2d (MaxPooling2D)    (None, 40, 40, 64)   0           conv2d_25[0][0]                  \n","__________________________________________________________________________________________________\n","conv2d_26 (Conv2D)              (None, 40, 40, 64)   102464      max_pooling2d[0][0]              \n","__________________________________________________________________________________________________\n","conv2d_27 (Conv2D)              (None, 40, 40, 128)  73856       conv2d_26[0][0]                  \n","__________________________________________________________________________________________________\n","max_pooling2d_1 (MaxPooling2D)  (None, 20, 20, 128)  0           conv2d_27[0][0]                  \n","__________________________________________________________________________________________________\n","conv2d_28 (Conv2D)              (None, 20, 20, 128)  147584      max_pooling2d_1[0][0]            \n","__________________________________________________________________________________________________\n","up_sampling2d (UpSampling2D)    (None, 40, 40, 128)  0           conv2d_28[0][0]                  \n","__________________________________________________________________________________________________\n","conv2d_29 (Conv2D)              (None, 40, 40, 128)  147584      up_sampling2d[0][0]              \n","__________________________________________________________________________________________________\n","add (Add)                       (None, 40, 40, 128)  0           conv2d_27[0][0]                  \n","                                                                 conv2d_29[0][0]                  \n","__________________________________________________________________________________________________\n","up_sampling2d_1 (UpSampling2D)  (None, 80, 80, 128)  0           add[0][0]                        \n","__________________________________________________________________________________________________\n","conv2d_31 (Conv2D)              (None, 80, 80, 64)   204864      up_sampling2d_1[0][0]            \n","__________________________________________________________________________________________________\n","conv2d_32 (Conv2D)              (None, 80, 80, 32)   165920      conv2d_31[0][0]                  \n","__________________________________________________________________________________________________\n","conv2d_33 (Conv2D)              (None, 80, 80, 3)    867         conv2d_32[0][0]                  \n","==================================================================================================\n","Total params: 902,211\n","Trainable params: 902,211\n","Non-trainable params: 0\n","__________________________________________________________________________________________________\n"],"name":"stdout"}]},{"cell_type":"code","metadata":{"colab":{"ba
…
